hls4ml_example.onnx (onnx, 18187 bytes, 4 tensors)

sequential/output/MatMul/ReadVariableOp:0 f4 [32, 5]
00000000: a0ac c63c 6d97 963e b082 5dbe 50d6 56bd
00000010: 1d83 923e 6084 31bd 3229 97bd 90a5 613d
00000020: 2e07 4e3e 3676 3bbe 601b 9e3d 5055 c23c
00000030: 4d52 64be f590 8a3e feb6 3b3e b0a8 403e
00000040: a881 9c3d f25a c1bd 1cb7 b23d 50c6 e23c
00000050: 601e a63c e011 523c 305c 11bd a8c8 78bd
00000060: 42e3 2cbe 83fe 1fbe 6f28 913e be1f 603e
00000070: 49a3 19be a68b 153e 8613 7c3e eeb4 4e3e
00000080: c0b5 3b3e 6f2b 9c3e b03b f83d 54ce 8abe
00000090: 0066 163a 0050 1a3d 7a5e d1bd fcad 8a3d
000000a0: 5ccd e9bd 288f 68be bcb3 b93d ab43 9c3e
000000b0: 054f 853e c220 1fbe e081 16bd 674d 8a3e
000000c0: 2298 2b3e edc7 37be 0670 74be 3638 8cbe
000000d0: 7247 373e 1006 1a3d b6d2 6cbe c094 01bd
000000e0: 08f9 313d a0c4 89be a298 6abe c6cd 70be
000000f0: 103c bb3c 0a4e e3bd a000 7bbd 7800 27bd
00000100: b343 1bbe ff98 953e e087 04bc 44fe d1bd
00000110: c99d 18be 40f6 793d 2248 8ebe f826 d43d
00000120: 40fc acbd 6e95 363e 22e2 253e a0c6 3ebd
00000130: eac1 6f3e 40a9 3abc 402e 473d 5854 da3d
00000140: 4108 54be 62e3 42be 6822 3fbd 7e18 103e
00000150: fc23 973d ced9 753e 80d5 f0bc f4c0 0c3e
00000160: 4059 f4bb 31af 8abe 4247 643e 4347 27be
00000170: 4051 a43c 7016 afbc 69ec 51be 328d 3b3e
00000180: 5a3b 60be 1669 633e e046 83bc a65c 56be
00000190: 167e 87be 708c 03bd 7bad 8ebe 0670 383e
000001a0: 882a 043e aa73 333e c711 883e 6368 803e
000001b0: 4886 7bbd 852c 56be 305f cebc 564d 81bd
000001c0: 5e1f 1a3e 37df 85be 32b0 09be e4fd 86be
000001d0: 9477 ef3d d3bd 2abe ce26 773e af71 64be
000001e0: 9e2c 0f3e 4131 8dbe 90cc 1f3d bf69 8c3e
000001f0: 8218 cdbd 64bd 253e fdb2 65be bc09 77be
00000200: 6e59 98bd 07a2 8c3e b4ea 113e 0cd3 ef3d
00000210: 1946 2bbe 0e3d 90be d0dc b23d 6a50 273e
00000220: f88b 96bd 18cf 8ebe f6d4 56be d0e0 733d
00000230: 8c8a f93d c24b 88bd 08fb 41bd fe44 753e
00000240: 92d5 4a3e becf 0e3e d6f1 543e 706d 6abe
00000250: c87b 48bd 37c5 98be fe5e 3cbe c0fc 463d
00000260: 5ebb 5b3e c087 043e 8793 853e 3ac9 2f3e
00000270: 6f9d 8abe 94a8 e5bd 25fe 15be 4009 ab3c
0.024252236 0.29412404 -0.21631885 -0.052450478 0.28615656 -0.043339133 -0.07380904 0.055089533
0.20119926 -0.18306813 0.07720065 0.02372232 -0.2229702 0.27063718 0.18331525 0.18814349
0.076419175 -0.094411746 0.087263316 0.027682453 0.020278156 0.012821645 -0.035488307 -0.060738236
-0.16883567 -0.15624432 0.2835116 0.21887109 -0.15003695 0.14604053 0.24616823 0.20186207
0.18331051 0.30501887 0.121207595 -0.2711054 0.0005737245 0.03767395 -0.10223098 0.06771466
-0.11416122 -0.2271086 0.09067485 0.30520377 0.2603685 -0.1553984 -0.036744952 0.27012178
0.16757253 -0.1794736 -0.23870859 -0.27386636 0.17898348 0.037603438 -0.23127255 -0.031636
0.043450385 -0.26907825 -0.22909787 -0.23515996 0.022855788 -0.11098869 -0.061279893 -0.04077193
-0.15162544 0.2921829 -0.008089036 -0.102535754 -0.1490394 0.061025858 -0.27789408 0.10358995
-0.0844655 0.1783044 0.16199544 -0.046576142 0.23413816 -0.011392891 0.04862809 0.106606185
-0.20706274 -0.19032052 -0.04666367 0.14071843 0.0737991 0.24008867 -0.02939868 0.13745481
-0.0074569285 -0.27086785 0.22292808 -0.16335778 0.020058274 -0.021373004 -0.2050034 0.1831558
-0.21897641 0.22208056 -0.016025007 -0.2093378 -0.26463383 -0.032116354 -0.2786673 0.18011484
0.1290685 0.17524591 0.26576063 0.2507964 -0.061407357 -0.2091542 -0.025191873 -0.06313579
0.15051028 -0.26146862 -0.1344612 -0.26365578 0.116927296 -0.16673975 0.24135897 -0.22308992
0.13981864 -0.2757664 0.039013445 0.27424428 -0.1001444 0.16185528 -0.2243156 -0.24124807
-0.07438932 0.27467367 0.14249688 0.11710176 -0.16725959 -0.2817158 0.08733523 0.1633927
-0.07350916 -0.27892375 -0.20979676 0.05954057 0.12184629 -0.06655075 -0.047358543 0.239521
0.19808033 0.13946435 0.20795378 -0.2289331 -0.048946172 -0.29837963 -0.18395612 0.048580885
0.21458194 0.1294241 0.26089117 0.17166606 -0.27073237 -0.11213794 -0.1464773 0.020878434

sequential/fc3/MatMul/ReadVariableOp:0 f4 [32, 32]
00000000: 6cae 1b3e ed94 84be 707a 0ebd 9864 84be
00000010: 34cd 883d f284 223e 517e 0abe 4bea 943e
00000020: 601c 3abc ae09 e2bd 7893 98be df8e 943e
00000030: 6032 013d c006 b33c 392f 7dbe 6081 063c
00000040: 3018 72be 188c 733d 1e8f 713e 8e5e d9bd
00000050: 58dc eb3d 1431 fe3d f055 c13c d460 a1bd
00000060: e00f 73be e074 813d 11e4 8cbe 4d6f 33be
00000070: baf0 763e 51b5 8abe 90ae 2f3d 9635 5b3e
00000080: b688 94be c699 13be f2a6 cfbd 801f 2b3e
00000090: f279 603e f403 efbd e988 8bbe 9622 3f3e
000000a0: 4071 ad3d a816 733d d89b 9bbe 604b 4e3d
000000b0: 8ae7 63be 2c35 0b3e ebea 8f3e 409a abbc
000000c0: 52c4 503e 7ea9 643e 150f 853e 4f03 90be
000000d0: 0190 813e 7842 f5bd 4e36 debd 06aa 81be
000000e0: 38d7 fa3d ee78 773e b227 52be 7f45 843e
000000f0: 7e2e 93be f2c3 723e 10d3 89bc f41b fb3d
00000100: 29a0 913e 005e fb3b 7001 8a3c 4160 8c3e
00000110: e76e 8f3e c437 98be 3e97 483e 16eb 653e
00000120: 9190 933e c19c 9c3e c4d9 8a3d 709c 933d
00000130: 9804 b43d ecea a9bd ae0e cabd 4e1f 21be
00000140: 8094 a0bb f0a5 e3bc 80f4 f2bc 0c1b cebd
00000150: 6b29 54be eab5 40be ded6 653e 68f6 4dbd
00000160: 6428 85be 8c83 073e 935c 923e eecc 253e
00000170: 207f 4bbd 4054 8bbc 20b6 94be 5748 973e
00000180: 3203 653e 98c6 7a3d 3681 253e b119 8b3e
00000190: c2a0 4f3e e0db 233e 9868 413e 76bb 123e
000001a0: f8ac 303e cef5 4d3e ec9a 80be e6b5 1e3e
000001b0: 5f2c 9a3e e0cb 553d bad2 023e 0e32 713e
000001c0: df66 02be 9017 cebc 1057 06bd 5a00 4f3e
000001d0: d304 863e a87b 4a3d 0c8e 323e c84a fa3d
000001e0: 40c1 58be d230 31be e0b7 3fbe 13fa 53be
000001f0: 3f2a 983e 1ab7 313e 7022 223d 4af0 efbd
00000200: d812 0c3d 768e 2a3e 0087 56be 5408 a83d
00000210: f0e9 b83c 9e67 84be fc74 d93d a50d 9c3e
00000220: 209e 803d 814a 05be 61e2 79be 809e c23b
00000230: 8a27 103e 7af9 9fbd a878 193d d032 593d
00000240: 27bf 923e f053 9cbc f896 423d 806e 773b
00000250: 34dd 61be ba2e 603e a016 b9bd 21d5 09be
00000260: 0052 c9bb c004 03be b07b 2d3d 4d66 8a3e
00000270: 53ad 4ebe 264d 653e 4096 663d 3f16 95be
00000280: 8e05 63be f42c 99be f1fb 8fbe e64b 4a3e
00000290: 7751 90be 800b 703d d6ee 363e b1e9 9abe
000002a0: 9056 3e3d bffc 903e 114c 23be 2ac7 90be
000002b0: da9d 173e 4eb4 6b3e fc86 8a3d 6821 36be
000002c0: bc34 323e 90ae bc3d 4a68 86bd e8e1 93be
000002d0: 7ea7 493e dec6 10be 4834 d43d e89e 1bbe
000002e0: ddf8 853e 6283 733e f012 213d c037 b2bc
000002f0: 00a0 a7bd be4a 21be fa0f 3abe a021 053c
00000300: 0c7e 74bd c6cf 3dbe b46e 3ebe 688f dbbd
00000310: 14dc b5bd e018 9a3d 988c 53be 1233 5a3e
00000320: 0a14 713e 1221 d0bd 64b8 cb3d 7cb1 19be
00000330: 1637 9abe cb20 993e 96eb 533e c6da e7bd
00000340: c185 58be d487 9a3d 42b8 4f3e d8d6 f03d
00000350: fa89 2bbe d27a 92be 9c65 9cbe e26f 733e
00000360: eee0 a9bd 1424 903d 6826 40be ebd1 71be
00000370: b879 4abd 4ece 04be 5066 ac3c ce1e c7bd
00000380: 67cb 8dbe 7256 edbd f1e4 8e3e e96a 7fbe
00000390: aec6 35be 07a3 893e ca77 773e 200e 93be
000003a0: 2036 35bd 3395 13be 4034 613d 00a3 f73a
000003b0: 1a33 283e 4b84 78be 2ee3 4c3e 7202 a5bd
000003c0: 5967 5abe 325f 243e 7dac 803e 616a 23be
000003d0: 7629 60be 3ce4 b2bd c0eb 8abe 4dc1 12be
000003e0: 4407 a43d 2a35 18be 97a7 15be b558 73be
000003f0: 85ae 933e 105e fcbd a462 71be a85e cd3d
0.15203255 -0.2589487 -0.034784734 -0.25857997 0.066797644 0.15871027 -0.13524748 0.29085
-0.011359304 -0.110370025 -0.2980001 0.29015252 0.031542182 0.021853805 -0.24725045 0.008209556
-0.2364204 0.059459776 0.23589751 -0.10613738 0.115166366 0.12411705 0.023600549 -0.078797966
-0.23736525 0.0632112 -0.2751775 -0.17522927 0.24115267 -0.27091458 0.042891085 0.2140716
-0.29010552 -0.14414129 -0.10139264 0.16711235 0.21921518 -0.11670676 -0.27252892 0.18665537
0.08468866 0.05934778 -0.30392337 0.050364852 -0.22256294 0.13594502 0.28108916 -0.020947576
0.2038739 0.22330281 0.2598807 -0.28127524 0.2530518 -0.119755685 -0.108502015 -0.2532503
0.12248081 0.24167225 -0.20522955 0.2583427 -0.28746408 0.2370756 -0.016824275 0.12261191
0.28442505 0.007671118 0.016846389 0.27417186 0.280143 -0.29730046 0.19588944 0.2245296
0.28821233 0.30588344 0.06779817 0.072075725 0.08789939 -0.08296761 -0.09866081 -0.15734598
-0.004900515 -0.027789086 -0.029657602 -0.100637525 -0.20718925 -0.18819395 0.22445247 -0.05028382
-0.26007378 0.13233775 0.28586254 0.16191456 -0.049681783 -0.017007947 -0.290452 0.29547378
0.223645 0.06122455 0.16162571 0.27168038 0.20276168 0.16001844 0.18887556 0.14329323
0.17253482 0.20113298 -0.25118196 0.15499076 0.30111977 0.052196383 0.12775698 0.2355425
-0.12734555 -0.02515772 -0.032797873 0.20214978 0.26175556 0.049434334 0.17436999 0.12221295
-0.21167469 -0.1730378 -0.18722486 -0.20700864 0.2971973 0.17355004 0.039583623 -0.117157534
0.03419766 0.16655907 -0.20949936 0.082047135 0.022572488 -0.25860304 0.10618016 0.3047916
0.0628016 -0.13016702 -0.24402763 0.005939305 0.14077583 -0.07811256 0.037468582 0.053026974
0.28661463 -0.019082993 0.047507256 0.0037755072 -0.22057039 0.21892825 -0.090375185 -0.13460208
-0.0061438084 -0.1279478 0.042354286 0.27031174 -0.20183305 0.22392711 0.056295633 -0.29118535
-0.22170088 -0.2991711 -0.28121904 0.19755515 -0.28187153 0.058604717 0.17864546 -0.30256417
0.04646927 0.2831783 -0.15946986 -0.2827695 0.1480631 0.23018 0.067640275 -0.17786181
0.17402929 0.09212983 -0.0656286 -0.2888329 0.196928 -0.14138362 0.10361534 -0.15197337
0.2616643 0.23780587 0.0393247 -0.0217551 -0.081848145 -0.15751168 -0.18170157 0.008125693
-0.05969052 -0.1853629 -0.18596917 -0.10720712 -0.08879867 0.07524276 -0.20659101 0.21308544
0.235428 -0.10162558 0.09947279 -0.15009111 -0.30120152 0.29907832 0.20695338 -0.113210246
-0.21144773 0.075454384 0.20285133 0.11759728 -0.16751853 -0.2860933 -0.30546272 0.23773149
-0.08294855 0.07038131 -0.18764651 -0.23615234 -0.049432486 -0.12969324 0.02104488 -0.097226724
-0.27694246 -0.11588754 0.27909043 -0.24943127 -0.17751572 0.26882192 0.2416679 -0.28721714
-0.04424107 -0.14412384 0.05498147 0.0018893182 0.16425744 -0.24269216 0.20008537 -0.08057107
-0.21328487 0.16051939 0.25131598 -0.15958549 -0.21890816 -0.087349385 -0.27132988 -0.14331551
0.08009198 -0.1486403 -0.14614712 -0.23764308 0.28844085 -0.123226285 -0.23572785 0.1002782

sequential/fc2/MatMul/ReadVariableOp:0 f4 [64, 32]
00000000: 5239 863d 1662 4cbe bb05 5bbe b503 f1bd
00000010: c9ac 11be c210 ed3d 29ab 253e ecc4 11bd
00000020: 7c72 d3bd e639 823d 2063 97bb 4033 aebd
00000030: f475 4d3d 5ab1 843d 3018 bcbc b935 e7bd
00000040: 85dd 34be fd46 48be e443 6d3d 2773 4d3e
00000050: cabd 9e3d 075d 4f3e adfc 023e 7481 e3bd
00000060: d455 723d 38e9 5bbd 02e5 0cbe d832 b4bd
00000070: a429 6d3d f495 7f3d 4647 f03d 6a17 bd3d
00000080: 9178 3a3e 00a4 4cbe 33ee 573e 08e8 0fbe
00000090: 1490 043d 6d35 463e 548c 0abe 49a3 3abe
000000a0: 3a02 2abe efe8 52be 81cb 0f3e 800c 64bc
000000b0: 2e56 2abe 9ed0 e83d 1cfd 793d 4cd2 1cbe
000000c0: 4cad 60bd 2245 ef3d 7dde 2ebe 587e 4fbe
000000d0: b78e 563e 8b86 f6bd 3da5 243e 7b4c 133e
000000e0: 7343 fabd 3a59 a0bd f6e4 d0bd 097d 583e
000000f0: c741 cfbd 9fc0 163e 2e92 a23d 3cd7 7f3d
00000100: 4ff9 073e 8726 213e 01b6 273e 30cc 0c3c
00000110: a928 09be 95de dcbd 8045 ca3c cdf7 393e
00000120: 2f57 4f3e 01d0 1f3e 0af3 d53d c064 643b
00000130: d0bc 31bd 2918 103e a6c8 883d 2ca1 603d
00000140: 0dcd 023e 47a3 293e cb6e 413e 48ba 9a3c
00000150: 8f2b 073e 1075 69bd 6abb 903d b838 41be
00000160: 0419 84bd caad dc3d 562c 2abe 34bc 763d
00000170: b068 563c 24b7 24be a226 fc3d 9c26 1f3d
00000180: c6b1 d43d fe3b a13d 70ad e73c 15c5 4e3e
00000190: d252 56be 886f 97bc 04c6 dbbd f053 343c
000001a0: 575c 213e 008a 61bb bef5 dc3d 9d82 2f3e
000001b0: f341 3f3e f70d 433e 2e50 df3d 0c6a 283d
000001c0: 32c6 ac3d 6f74 2f3e c2d5 8ebd 2660 46be
000001d0: 1064 15bd eb8e 593e 380a 12be d02c ca3c
000001e0: a847 b83c a5ae f7bd 2863 30bd 8249 bd3d
000001f0: c4e3 47bd e709 eebd a1e9 24be f205 c73d
00000200: ea68 ae3d 04fe 0b3d b4a9 9abd e851 fcbc
00000210: 2710 2d3e d798 3b3e 5a85 81bd 4328 333e
00000220: e0d0 1fbd 42ba b2bd e1b5 4fbe f722 073e
00000230: 33ce eabd a17c 023e cec7 cd3d e83b e3bc
00000240: 5658 f4bd 97ab ccbd d412 27be 9e0f 52be
00000250: c2b9 a7bd b0bc 6abd c80c a5bd 115d 443e
00000260: 8080 b93c 6060 743c 6b74 12be 2621 d13d
00000270: 82e3 dfbd 0011 21ba 55a9 083e f06f 3fbd
00000280: 8ea1 30be 8322 173e 60b8 20bd 9a3b e03d
00000290: f096 ff3c 5fb9 423e 9326 183e 6015 c13c
000002a0: 068c 9c3d fe5c a3bd 5c7b e0bd da90 2fbe
000002b0: cea4 1fbe 261e d43d b86a 69bd bdf4 263e
000002c0: c111 3b3e dcb0 cdbd 73b7 2e3e 7218 f73d
000002d0: a631 df3d d4a6 113d 9351 563e d8ff 5bbd
000002e0: 6fc8 313e 9e00 08be 10a5 2cbd fef2 eb3d
000002f0: 864e ec3d 06ad dc3d b092 1abe b03e 97bc
00000300: 19b0 3d3e 8c72 dfbd 46bb d53d f608 29be
00000310: 8c49 07bd 7c19 1f3d 4ebb 1ebe cd37 3fbe
00000320: 71d0 023e 880d a9bd b7fe 2abe ecaa 24be
00000330: c087 5bbb ae5e 11be 9489 5a3d 4e1c 933d
00000340: 3522 16be b86d c13c 38f0 4bbe 6fd2 303e
00000350: 43cb 303e e00b f6bc 006f 133b 3d07 4d3e
00000360: 8098 13be 90ad 32bd d68d c73d 1e9f a73d
00000370: 0009 13bb 08ba 36bd 509e f5bc 0010 443c
00000380: 8091 d03b 14b7 593d a4b1 5ebd d764 4d3e
00000390: c4ca 333d f008 093c 48d4 01be 95a0 0c3e
000003a0: 52a1 4cbe ee8b c5bd 1f89 2a3e 98c3 43bd
000003b0: 6260 ed3d b1db 143e 3099 02bd 2c7c 363d
000003c0: 000d 833b be6e b33d 2aa7 93bd 9874 3fbd
000003d0: 0ef6 ebbd d5db 113e 8442 34be 820e 85bd
000003e0: b4c1 2fbd 444b 40bd 5af5 83bd 8873 d13c
000003f0: d549 3bbe da68 fabd d117 163e 3b0a 483e
0.06553902 -0.19959292 -0.21388905 -0.11768285 -0.14226069 0.11575462 0.16178574 -0.03558819
-0.103245705 0.063586995 -0.004619971 -0.08505869 0.050161317 0.064791396 -0.022960752 -0.11289544
-0.17662628 -0.1955833 0.057926074 0.20063458 0.07751043 0.20250331 0.127917 -0.111086756
0.059163883 -0.05368921 -0.13759235 -0.0879876 0.05790104 0.062398866 0.11732344 0.092329815
0.18210055 -0.19984436 0.2108696 -0.14053357 0.032363966 0.19356318 -0.13530093 -0.18226351
-0.16602412 -0.2059667 0.14042474 -0.013918996 -0.16634437 0.113679156 0.0610324 -0.15314597
-0.05485277 0.11683108 -0.1707706 -0.2026304 0.20952879 -0.12037381 0.16078658 0.14384644
-0.12219896 -0.078295186 -0.10199921 0.21141447 -0.10119968 0.14721917 0.07938038 0.062461123
0.13278697 0.15737353 0.16378023 0.008593604 -0.13394417 -0.10784642 0.024691343 0.18160935
0.20248102 0.15606691 0.10446747 0.003485009 -0.043392956 0.14071716 0.06678896 0.054841205
0.12773533 0.16566192 0.1888992 0.018887654 0.1320021 -0.056996405 0.070669964 -0.18869293
-0.06450084 0.10775335 -0.16618475 0.06023808 0.013086483 -0.16085488 0.12312056 0.03885518
0.1038547 0.07872771 0.028280944 0.20192368 -0.20930031 -0.0184858 -0.10731128 0.01100634
0.15757881 -0.003441453 0.10789059 0.17139669 0.18677501 0.19048296 0.10903965 0.04111676
0.0843624 0.1713426 -0.06974365 -0.19372615 -0.03647238 0.21245925 -0.1426171 0.024679571
0.022495106 -0.12093858 -0.043063313 0.09242536 -0.0488012 -0.116229825 -0.16104747 0.09717931
0.085161045 0.034177795 -0.075518996 -0.030800775 0.16900693 0.18320023 -0.06324263 0.17495827
-0.039017558 -0.08726932 -0.20284225 0.13196932 -0.11465111 0.12742855 0.10047875 -0.027738526
-0.11930911 -0.09993666 -0.16315776 -0.2051377 -0.08189727 -0.057308853 -0.080590785 0.19176127
0.022644281 0.014915556 -0.14302222 0.10211401 -0.109320655 -0.0006144196 0.13345845 -0.04673761
-0.17249128 0.14759259 -0.039238334 0.10948868 0.031199902 0.19016026 0.14858465 0.023569763
0.07643895 -0.07976721 -0.10961029 -0.171451 -0.15590212 0.10357313 -0.05698654 0.16304298
0.18268491 -0.10043499 0.17062168 0.120652094 0.108981416 0.03555949 0.20929556 -0.05371079
0.17361616 -0.13281485 -0.042149603 0.115209565 0.11538415 0.10775189 -0.1509502 -0.018462509
0.18524207 -0.1091052 0.1043611 -0.16507325 -0.033029124 0.038842663 -0.15501139 -0.1867363
0.12774827 -0.08254534 -0.16698729 -0.16080827 -0.0033497661 -0.14196274 0.05335386 0.07183133
-0.14661486 0.023611888 -0.19915855 0.17267774 0.17265038 -0.03003496 0.002249658 0.20022292
-0.14413643 -0.043622553 0.0974385 0.08184646 -0.0022435784 -0.044611007 -0.029982716 0.011966705
0.006365001 0.053153113 -0.05436863 0.20057999 0.043894544 0.008363947 -0.12678635 0.13733132
-0.19983414 -0.0964583 0.1665387 -0.047793955 0.11590649 0.1453693 -0.031884372 0.044552013
0.0039993525 0.08761357 -0.072096184 -0.04674205 -0.115215406 0.14244016 -0.17603499 -0.06496908
-0.04290934 -0.04694678 -0.064432815 0.025567785 -0.18289883 -0.1222703 0.14657523 0.19535153

sequential/fc1/MatMul/ReadVariableOp:0 f4 [16, 64]
00000000: fd9d 8a3e b67f cabe 7836 9fbe cc2c 8dbe
00000010: 007d d7bd 412d b63e d5c6 8b3e e119 9fbe
00000020: efde ca3e 0a8a 87be af5a a03e 4638 4c3e
00000030: d6d8 83be da66 69be 07b3 9e3e 76dd 393e
00000040: 352a b53e d5d4 933e 88d6 65bd 7a7a 3e3e
00000050: 33e4 a83e c420 9cbe 39d8 cf3e 3816 dcbe
00000060: 2182 d63e 26f1 0a3e b637 b3be c0a6 87be
00000070: d38d dc3e 60bb 62be 685c 7cbd e419 27be
00000080: 2014 8abc 8043 8dbc f6e3 363e 14c5 f33d
00000090: a71b c43e 8856 c9bd ba5b 04be 9e76 273e
000000a0: a85c 323d 4c1d dfbd 9e0a 56be 5f4a 9ebe
000000b0: 0566 d5be b01d dc3c 30f6 0cbd ad06 823e
000000c0: c064 c3bc badf 13be 8ee5 4d3e 5820 4ebd
000000d0: 1cac b5bd ff54 d53e e00a 753d 6267 633e
000000e0: e2b5 613e a14e 843e 5977 47be 110b b23e
000000f0: 500c d7bd 904a 203d dd9a af3e 0a2d c3be
00000100: 121f 2a3e 2cb5 22be 8b08 3ebe 2de4 953e
00000110: 9c9a 2dbe 695d b3be f307 9f3e ddc1 c23e
00000120: a081 66bc a0d2 fc3c 74e5 bfbd ce2a ddbe
00000130: 5b48 a13e 2608 533e 483e 343d cf5f ddbe
00000140: 20d3 a7be 1ca4 c4be 6484 9e3d eeb7 0b3e
00000150: a182 9dbe 6ed6 acbe e0ea 803d 6ed0 413e
00000160: b8b9 9cbd 021e 103e 0405 b83d 70b8 ddbd
00000170: 14f4 83bd 27d6 c03e 4ef9 cfbe e1ae bd3e
00000180: 51dd 9d3e c13e d3be 06fd 6a3e e60a 373e
00000190: dbba 863e 305e a8bd a828 763d c29b 363e
000001a0: 70b8 7cbd 1639 6f3e c0e4 d7bb ead4 c6be
000001b0: d5f6 c5be 3b8a c13e f4b2 eb3d 4efa 7b3e
000001c0: 0e8b a9be 8157 bcbe 90f4 a9be 9b15 d63e
000001d0: 704c 11be 9316 5dbe 6abf 4a3e bfe2 b2be
000001e0: 80ea 453d 2614 763e c1cd 973e ad2b d93e
000001f0: 4b08 c93e e095 cfbe f861 c1bd 0a4b 243e
00000200: ae10 0ebe c85c a8bd 5193 ce3e 7cd1 9c3d
00000210: 11eb a03e 13f3 9a3e 1bf9 55be 139c d73e
00000220: 2ad3 3e3e 6810 1a3d e5ee ce3e 5268 4bbe
00000230: c89f 82bd 8fb0 d13e 5ec5 c1be bf59 8abe
00000240: e7b5 863e 18cb 5c3d d70f 883e a7cc 54be
00000250: 2e10 81be 2a02 263e 5e69 483e 6c2e d2bd
00000260: 692b 913e 80b3 983c c09d dd3c c02c 533c
00000270: 8c4a 973d 18a7 bfbd 2b0d a1be 726f 5e3e
00000280: 08a5 93be 733c ae3e 613c c73e f249 633e
00000290: b35e c13e 0f25 ccbe 9890 86be 6cd9 c4be
000002a0: 787c d3be 2c4f a33d 0840 763d d205 33be
000002b0: fde8 4dbe 585d 353d 3878 d5be c56f c73e
000002c0: 365d 9cbe a813 19bd 163b cbbe db9a 54be
000002d0: 5554 dc3e c11e ca3e ca2e 413e e64c 18be
000002e0: 17cc c33e 1ef7 7ebe bcd4 c03d 3fd3 8c3e
000002f0: 02ba 683e 86ff 72be d123 96be e96b c9be
00000300: 90e6 3d3d 2054 15bc 106f 273d 0b1f 87be
00000310: 021c 313e 12eb 393e 1a0a 5f3e d017 bebd
00000320: 80d9 c1be c0f5 e0bb 8249 dabe 3819 2d3d
00000330: f216 753e 488f 81be 9f93 6fbe 3924 863e
00000340: 6e0c 7dbe cac8 1b3e 9294 b1be b65a 3e3e
00000350: 00c8 c73a 3c0d 9b3d fc6b 85be 5c75 a3be
00000360: ca1d 1a3e 9cbe a33d 5df7 9d3e 00ba 57bd
00000370: ccbe d0bd 2151 b9be 7978 873e 4056 29bc
00000380: 061d bfbe 15d1 c53e 1eda 7c3e 774a 4fbe
00000390: 31d5 993e c06e 2e3d 8c2f e83d 8eea 3a3e
000003a0: be0f 07be 26c8 723e 2a10 0c3e 5820 09bd
000003b0: 41a2 73be a7c0 8a3e 6c4b f73d 84e0 33be
000003c0: b79d d5be 23f5 8c3e c2e3 5f3e 6c50 a9be
000003d0: 5c2f e4bd 3d8a a83e 88e3 56be 1009 c4bc
000003e0: a257 333e 50ef 72be 02af 5c3e e0fa d4be
000003f0: 48cd 51bd 8efd 91be ec44 a23d 3137 c4be
0.2707366 -0.3955056 -0.31096244 -0.2757324 -0.10521889 0.355814 0.27300134 -0.31074432
0.3962321 -0.26472503 0.31319186 0.19943342 -0.2575137 -0.22793141 0.30995962 0.18150887
0.35383764 0.28873315 -0.056112796 0.18601409 0.32986602 -0.30493748 0.40594652 -0.42985702
0.41896155 0.13568553 -0.35003442 -0.26494408 0.43076953 -0.2214179 -0.061611563 -0.1631847
-0.0168553 -0.0172441 0.17860398 0.11902824 0.38302347 -0.09830958 -0.12925616 0.16353843
0.043545395 -0.1089426 -0.20902488 -0.30916116 -0.41679397 0.026869625 -0.03441447 0.25395718
-0.023851752 -0.14440814 0.201071 -0.050323814 -0.08870718 0.4166641 0.059824824 0.22207406
0.22042039 0.2584124 -0.19479121 0.34774068 -0.10500395 0.03913361 0.3429784 -0.381203
0.16613415 -0.15889424 -0.18557946 0.29275647 -0.1695351 -0.35032204 0.31060752 0.3803853
-0.014068991 0.030862153 -0.093699366 -0.4319672 0.31500515 0.20608577 0.04400471 -0.4323716
-0.32778263 -0.38406456 0.07740095 0.13644382 -0.30763724 -0.33757347 0.06294799 0.18927166
-0.076526105 0.14073947 0.08985332 -0.10826194 -0.064430386 0.37663385 -0.40619892 0.37047485
0.30832914 -0.41258815 0.22948083 0.17875251 0.26314434 -0.0822109 0.060097367 0.17832854
-0.06169933 0.2336162 -0.0065885484 -0.38834316 -0.3866488 0.37800774 0.11508742 0.24607202
-0.33113903 -0.3678551 -0.331944 0.4181336 -0.14189315 -0.21590643 0.19799581 -0.3493862
0.04831934 0.24031124 0.29649165 0.42416134 0.3926414 -0.40544033 -0.09442514 0.1604425
-0.1387355 -0.082208216 0.40346768 0.076571435 0.3142934 0.30263576 -0.20895807 0.42111263
0.1863524 0.037613302 0.40416637 -0.19864014 -0.06378132 0.40955016 -0.37845892 -0.27021596
0.26310655 0.053904623 0.26574585 -0.20781194 -0.25207657 0.16211763 0.19571444 -0.102627605
0.28353432 0.01864028 0.02705276 0.012889087 0.073872656 -0.093580425 -0.3145536 0.217222
-0.28836846 0.34030494 0.38913253 0.22196177 0.37767562 -0.39872023 -0.2628219 -0.3844713
-0.413059 0.07974085 0.06011966 -0.17482689 -0.20108409 0.044278473 -0.41693282 0.3895246
-0.30539864 -0.03737226 -0.39693516 -0.20762198 0.4303309 0.39476588 0.18865505 -0.14873084
0.38241646 -0.24898955 0.09415576 0.27504918 0.22727206 -0.23730287 -0.293242 -0.3934014
0.04636246 -0.009114295 0.0408774 -0.2639087 0.1729584 0.18156078 0.21781197 -0.092818856
-0.37861252 -0.006865233 -0.42634207 0.04226038 0.23934534 -0.25304627 -0.23396157 0.2619951
-0.24711773 0.15213314 -0.34683663 0.18589291 0.00152421 0.07570884 -0.26058948 -0.31925476
0.15050426 0.0799534 0.30852786 -0.052667618 -0.101926416 -0.3619471 0.264591 -0.010335505
-0.3732683 0.3863608 0.2469258 -0.2024325 0.30045465 0.04258609 0.11337194 0.18253538
-0.13189599 0.23709163 0.13678041 -0.03347811 -0.23792364 0.27100107 0.120749325 -0.17566115
-0.4172189 0.27530774 0.21864226 -0.3306917 -0.111418456 0.32917967 -0.20985234 -0.023930103
0.17513898 -0.23724103 0.21551135 -0.41597652 -0.051221162 -0.2851376 0.07923302 -0.38323358
